model.tflite (tflite, 12564 bytes, 5 tensors)

arith.constant f4 [1, 32]
0.3635735 0.73120284 -1.9857302 0.5326873 0.30963045 -0.4666814 -0.39219853 -0.6987807
-0.64330137 0.26480296 -0.520294 0.6180276 -1.4249417 -0.5691082 -1.186501 -0.51961386
-1.1330446 -0.5134601 0.32395357 0.29160038 -1.786624 -0.48160282 -1.4469334 1.9015083
-0.56199074 0.4451374 -0.7874446 1.728053 -0.53774923 1.5924 0.8079126 -0.7079023
00000000: 4e26 ba3e 1c30 3b3f 682c febf 325e 083f
00000010: e287 9e3e ddf0 eebe 3fce c8be 4be3 32bf
00000020: 66af 24bf 4194 873e fd31 05bf 0f37 1e3f
00000030: 7d64 b6bf 13b1 11bf 44df 97bf 6a05 05bf
00000040: 9b07 91bf 1f72 03bf 3edd a53e a54c 953e
00000050: 18b0 e4bf a594 f6be 1d35 b9bf a064 f33f
00000060: a0de 0fbf 0de9 e33e f895 49bf d730 dd3f
00000070: efa9 09bf c3d3 cb3f 5cd3 4e3f 1639 35bf

arith.constant1 f4 [32, 64]
1.4121616 -0.09542982 0.3844525 0.7445445 -0.3341262 0.009990401 0.17795454 -0.36716923
-0.59912527 0.22669435 0.04676328 -0.02752742 -0.7544684 0.11676318 1.8438692 0.52495784
-0.5206598 0.33741418 -0.089109086 0.6265767 0.4152941 -0.08556548 0.15469517 -0.51860476
-0.7789326 0.6549269 -0.381249 -0.18212143 -0.011713433 -0.006017344 -0.017578738 2.1238158
1.3823553 -0.42369822 -0.15684403 0.14530091 0.7298163 0.6517879 0.95316315 -0.005446347
2.0398345 -0.1962408 -0.018131223 0.15386552 -0.008617669 0.26962227 0.19649091 -0.27996355
-0.17897469 0.4123897 -0.10409914 0.0057145935 0.14694725 0.1290816 0.18626402 0.4541901
0.1300705 0.18704712 -0.10963084 -0.26269203 -0.52105707 0.42853007 0.12709062 -0.41015306
1.6828358 0.061497293 0.3272061 0.8542276 0.04128499 -0.019117152 0.13653152 -0.4272952
-0.26266646 0.13003549 -0.06521719 -0.08933297 -0.29987928 0.32459164 2.2282786 -0.20000313
-0.3071898 -0.18201554 0.20421657 0.92411727 0.1249001 0.35430148 0.2951905 -0.25067526
-0.1787679 0.60765964 -0.19482923 0.13055174 -0.12683682 0.1699878 0.015930653 1.5565245
1.1299176 0.47245795 -0.21365523 -0.10062407 0.3689163 -0.26950642 0.83680665 -0.1153897
2.462466 0.060687453 0.47449145 -0.11224323 0.021322194 0.32297134 0.05528593 0.026104307
0.067822635 0.38028005 -0.105742626 -0.007927687 0.21714713 0.09258465 0.0936706 0.6993107
-0.01287188 -0.102207005 -0.33432573 -0.17589915 -0.55474126 -0.020107154 0.11192736 -0.17988434
-0.30398265 -0.117193624 0.18748061 0.0854053 0.011212439 -0.27580333 -0.27653235 0.25057256
1.3559467 -0.14114064 -0.09508791 -0.026384696 1.0162405 0.51795095 0.048699047 0.49669537
1.5192364 0.06520449 0.064303964 -0.19256388 -0.16346161 0.5216684 0.6472417 1.1325899
0.26322803 0.6200688 0.032257903 -0.13271153 0.10230432 -0.27172318 0.05783538 0.28827915
0.0051001944 0.34716526 0.058907557 -0.3668335 0.15169725 0.56217307 -0.37362292 0.07518692
-0.19639803 -0.08262247 0.48694155 -0.16054687 -0.07845596 -0.48630333 -0.09351105 -0.34844893
-0.012232336 -0.37948748 -0.4128935 -0.38214582 0.04473071 -0.20063654 0.05106953 0.6102112
-0.21318382 0.024631461 0.113724135 0.11041967 0.8120299 -0.30510327 -0.18976094 -0.17051585
1.1058866 -0.00914173 0.37933123 0.77649003 -0.67116284 0.0142318765 -0.05753108 -0.5778822
-0.5431108 0.09970603 0.14790069 -0.3485609 -0.8303142 0.1455034 1.4080465 0.6348731
-0.5929276 -0.026347065 -0.3111999 0.7950984 -0.12297582 -0.3068051 0.13595113 -0.37599087
-0.08909967 0.7935628 -0.6754856 -0.22492291 0.27781132 0.013684734 -0.13453549 1.4300797
1.017258 -0.79672575 -0.48132065 -0.01168678 0.069489956 0.40761426 0.61813277 -0.04208433
1.80979 -0.20863055 0.27708673 0.07022028 -0.05689505 0.31247595 -0.044086237 -0.49657336
-0.43115997 -0.003453007 -0.22098401 -0.48952737 0.058007527 0.13955785 0.10824156 0.3804044
-0.14274886 -0.035952087 0.1500629 -0.4702599 -0.29209664 0.22358604 -0.0644463 -0.8513555
00000000: b6c1 b43f b670 c3bd f5d6 c43e 789a 3e3f
00000010: 9712 abbe c7ae 233c b739 363e 9bfd bbbe
00000020: 4660 19bf 9022 683e da8a 3f3d 2f81 e1bc
00000030: d724 41bf 8921 ef3d e803 ec3f a363 063f
00000040: f649 05bf 8dc1 ac3e d37e b6bd 5567 203f
00000050: 6ea1 d43e f43c afbd 6968 1e3e 48c3 04bf
00000060: 2068 47bf 4aa9 273f 1233 c3be 0a7e 3abe
00000070: b3e9 3fbc 242d c5bb 4901 90bc 99ec 0740
00000080: 05f1 b03f f9ee d8be b99b 20be c3c9 143e
00000090: 3ed5 3a3f 92db 263f 8002 743f 4577 b2bb
000000a0: a68c 0240 59f3 48be ee87 94bc ec8e 1d3e
000000b0: 2031 0dbc ee0b 8a3e ea34 493e 6257 8fbe
000000c0: 2445 37be be24 d33e ee31 d5bd 7c41 bb3b
000000d0: 5779 163e f82d 043e ffbb 3e3e 9b8b e83e
000000e0: 3331 053e 4889 3f3e 2286 e0bd 927f 86be
000000f0: ff63 05bf 4b68 db3e 0b24 023e 95ff d1be
00000100: 2a67 d73f 96e4 7b3d 8f87 a73e a9ae 5a3f
00000110: 731a 293d 939b 9cbc ebce 0b3e 70c6 dabe
00000120: 387c 86be 0628 053e 9790 85bd 34f4 b6bd
00000130: c789 99be e030 a63e 1e9c 0e40 9fcd 4cbe
00000140: fb47 9dbe 4862 3abe 261e 513e f392 6c3f
00000150: a0cb ff3d 0167 b53e 3623 973e 8258 80be
00000160: ef0e 37be 958f 1b3f 5081 47be 5baf 053e
00000170: 83e1 01be 4811 2e3e 0081 823c 323c c73f
00000180: 24a1 903f 02e6 f13e 70c8 5abe fe13 cebd
00000190: 99e2 bc3e bffc 89be f638 563f 6f51 ecbd
000001a0: 0b99 1d40 6893 783d 8bf0 f23e c7df e5bd
000001b0: e2ab ae3c 805c a53e 8073 623d b3d8 d53c
000001c0: 98e6 8a3d 11b4 c23e 978f d8bd 21e3 01bc
000001d0: d15b 5e3e 059d bd3d 5fd6 bf3d 0706 333f
000001e0: 94e4 52bc e851 d1bd be2c abbe e81e 34be
000001f0: 8603 0ebf c2b7 a4bc 2c3a e53d 9a33 38be
00000200: 9da3 9bbe 3603 f0bd ebfa 3f3e f9e8 ae3d
00000210: 61b4 373c 1836 8dbe a695 8dbe 0c4b 803e
00000220: a98f ad3f 2c87 10be 73bd c2bd b824 d8bc
00000230: 2b14 823f 6f98 043f a778 473d db4e fe3e
00000240: 5776 c23f ef89 853d ccb1 833d 772f 45be
00000250: 7b62 27be 0f8c 053f a2b1 253f b5f8 903f
00000260: d3c5 863e d4bc 1e3f dd20 043d 88e5 07be
00000270: ed84 d13d 4d1f 8bbe cbe4 6c3d 5399 933e
00000280: 881f a73b a5bf b13e 0d49 713d 9ad1 bbbe
00000290: 8656 1b3e 93ea 0f3f 814b bfbe 9afb 993d
000002a0: 911c 49be f835 a9bd 6750 f93e 6666 24be
000002b0: 85ad a0bd c0fc f8be b982 bfbd e667 b2be
000002c0: 236a 48bc 2f4c c2be c766 d3be 9ea8 c3be
000002d0: 8d37 373d aa73 4dbe 492e 513d cd36 1c3f
000002e0: dc4c 5abe ebc7 c93c 33e8 e83d b523 e23d
000002f0: 31e1 4f3f 7f36 9cbe b150 42be b59b 2ebe
00000300: b18d 8d3f 32c7 15bc b437 c23e 0dc8 463f
00000310: 54d1 2bbf d12c 693c b6a5 6bbd 16f0 13bf
00000320: 4f09 0bbf ad32 cc3d 4773 173e 9376 b2be
00000330: 798f 54bf d8fe 143e de3a b43f 0b87 223f
00000340: 1aca 17bf cdd5 d7bc 9855 9fbe 928b 4b3f
00000350: bfda fbbd 8f15 9dbe c636 0b3e e081 c0be
00000360: e379 b6bd ef26 4b3f a0ec 2cbf 3152 66be
00000370: 493d 8e3e ef35 603c acc3 09be da0c b73f
00000380: 8335 823f 38f6 4bbf a96f f6be e879 3fbc
00000390: c050 8e3d d1b2 d03e f33d 1e3f 9e60 2cbd
000003a0: 33a7 e73f 3fa3 55be 50de 8d3e a6cf 8f3d
000003b0: c90a 69bd d9fc 9f3e c593 34bd dd3e febe
000003c0: 00c1 dcbe d84b 62bb a249 62be 55a3 fabe
000003d0: 4d99 6d3d 41e8 0e3e c0ad dd3d 5ec4 c23e
000003e0: c22c 12be 7f42 13bd 17aa 193e e8c5 f0be
000003f0: b18d 95be bdf3 643e 6cfc 83bd 6ff2 59bf

arith.constant3 f4 [32]
-0.072820835 -0.2844144 -0.46039966 0.12066185 0.049237113 0.31002125 0.16188122 0.119750224
0.20622958 0.20560765 0.10290656 0.117996834 -0.33224702 0.08805582 -0.20076337 0.19223103
-0.18890867 0.19248724 0.17446618 0.1544016 -0.4463905 0.16780554 -0.31283352 -0.49741334
0.2550127 -0.03985524 0.25012997 -0.45567662 0.22122626 -0.4584527 -0.2121943 0.28150424
00000000: 1723 95bd c49e 91be 81b9 ebbe 8f1d f73d
00000010: dbac 493d 1bbb 9e3e 31c4 253e 9b3f f53d
00000020: d92d 533e d08a 523e adc0 d23d 53a8 f13d
00000030: 481c aabe 9c56 b43d ea94 4dbe 36d8 443e
00000040: 4671 41be 601b 453e 43a7 323e 741b 1e3e
00000050: 4c8d e4be 37d5 2b3e b72b a0be f6ac febe
00000060: 0691 823e 403f 23bd 0911 803e 724e e9be
00000070: 2389 623e 50ba eabe 7649 59be 5321 903e

sequential_1_1/dense_3_1/BiasAdd/ReadVariableOp f4 [64]
-0.43948284 -0.22088155 -0.28910375 -0.41905668 -0.2117126 -0.04425345 -0.05318398 -0.1880507
-0.664156 0.029501928 0.1290463 -0.12736614 -0.54738593 -0.5004075 -0.6626807 -0.5888638
-0.64234424 -0.11332583 -0.047737353 -0.40381762 -0.37989977 -0.1533343 -0.4110023 -0.5979572
-0.16200097 -0.71677715 -0.43630168 -0.06723284 -0.1176178 -0.031873763 -0.15847242 -0.614335
-0.616912 -0.121558644 -0.08658466 -0.17019957 -0.48385525 -0.47383043 -0.42249438 -0.13235544
-0.49816504 -0.044160563 -0.42370966 -0.13444336 -0.09137065 -0.37631667 -0.09021224 -0.06611953
-0.044432208 -0.22648352 -0.24157794 -0.07957863 -0.047667667 -0.26037627 -0.35352364 -0.56110996
-0.33775884 -0.0997938 -0.2034032 -0.41794446 -0.4524258 -0.23748206 -0.3054241 -0.1927824
00000000: e503 e1be c62e 62be 6805 94be 998e d6be
00000010: 30cb 58be 1b43 35bd 72d7 59bd 5d90 40be
00000020: 2106 2abf 07ae f13c b724 043e 456c 02be
00000030: 7c21 0cbf b51a 00bf 71a5 29bf c7bf 16bf
00000040: ac70 24bf 5f17 e8bd 3e88 43bd 2fc1 cebe
00000050: 3982 c2be ab03 1dbe e56e d2be b913 19bf
00000060: 95e3 25be b57e 37bf ef62 dfbe 5fb1 89bd
00000070: 9ae1 f0bd 108e 02bd 9846 22be 0f45 1dbf
00000080: f2ed 1dbf bdf3 f8bd 4c53 b1bd cc48 2ebe
00000090: e0bb f7be e799 f2be 2f51 d8be 2f88 07be
000000a0: 7d0f ffbe b5e1 34bd 79f0 d8be 85ab 09be
000000b0: 8920 bbbd 94ac c0be 32c1 b8bd ad69 87bd
000000c0: 8cfe 35bd 4ceb 67be 3560 77be 1ffa a2bd
000000d0: 2c3f 43bd 0a50 85be 0d01 b5be e7a4 0fbf
000000e0: baee acbe b160 ccbd ee48 50be d1fc d5be
000000f0: 5ba4 e7be 7f2e 73be 8c60 9cbe c068 45be

sequential_1_1/dense_3_1/MatMul f4 [64, 7]
-0.0040321946 0.0030454006 1.2727764 -0.0011671424 0.0017505316 -0.010875941 0.00023012166 -0.14571063
0.4076564 -0.26416317 0.020476583 0.19099994 0.32233328 -0.092949405 -0.3339222 -0.23143129
-0.09788144 -0.009729722 0.028184805 0.18858868 -0.084112465 -0.032308318 -0.048542332 1.2808286
0.058065224 -0.023027752 0.040188927 -0.038978502 -0.30809525 0.21869384 -0.18893534 0.01636784
-0.12520368 -0.07560178 -0.111758284 0.09594774 0.36682382 0.31238586 0.3199699 -0.024103904
0.14597392 -0.06289397 -0.13041948 0.3861137 0.7733453 -0.058182545 -0.18197332 -0.06350781
0.0362198 -0.16776319 -0.43565685 -0.14385416 -0.007156958 -0.17674422 -0.0988727 -0.09384981
0.037259396 -0.841831 0.11806351 0.00050259935 0.015821995 -0.00398891 0.0348481 0.23800328
0.21347177 0.25642076 0.08081437 0.039091185 -0.2288093 0.10774034 0.21749644 0.39449593
0.13319014 0.18617168 0.15579112 -0.04026985 -0.04306113 0.23443604 0.39122367 0.21952075
0.040170297 -0.09743417 0.008283362 0.044945426 -0.14523588 -0.05351006 -0.9525137 -0.04500582
-0.011462727 0.031698618 -0.1513352 0.1160558 -0.80953974 0.5162374 0.03372302 0.014826896
-0.010878603 0.00080241496 0.018327719 0.86212665 -0.00975462 0.03096741 0.045836758 -0.0058041327
0.0042271167 0.03783121 -0.62918985 -0.6454373 0.107026294 0.09201882 0.06262676 0.011668567
0.031086067 -0.8218058 0.010583049 0.006886054 0.018233947 -0.0045896214 0.014952317 0.27774468
-0.2764242 -0.4501461 0.26987755 0.11570165 -0.046961818 0.023613332 -0.2722253 0.292329
-0.065002225 -0.113215886 -0.010964406 -0.18604821 -0.06770358 0.009329646 -0.04724366 1.1356782
0.022945987 0.0045115296 -0.0134813115 0.017594904 0.009338817 0.66531646 0.06941697 0.029505825
-0.017764753 -0.05025375 -0.045903694 -0.17389387 0.17525363 -0.6467815 -0.0877432 0.08332827
-0.04440681 0.082075275 0.10608717 0.38773188 -1.1633135 0.028514642 -0.024945328 -0.025411895
-0.03660874 0.01986356 -0.8020077 0.14411314 -0.03227703 -0.005511596 0.0031342935 -0.012288465
0.020253845 -0.28522402 -0.6053121 -0.13295893 -0.10491694 -0.06287664 0.065140605 0.10979497
0.3555728 -1.2705702 0.1019157 0.089101925 0.043222364 0.07810913 -0.27866736 -0.18513653
0.2293899 0.20337068 -0.062001232 -0.040243622 0.11786405 0.20801407 0.06320183 0.31835985
-0.09040392 -0.17717953 0.033888865 0.016914165 0.103937 -0.18138061 -0.3498452 0.21310042
-0.10431029 0.031816274 0.051679216 0.08104682 0.3105388 0.27235752 0.23159681 -0.017738944
0.19744332 -0.05222603 0.07766923 -0.26371822 0.21719086 0.29246983 0.11282246 0.16152415
-0.08583402 -0.018192824 0.84519756 0.044161413 -0.043051984 0.020727847 0.0009533182 -0.011350194
-0.01955493 0.8363234 -0.023831146 0.0051849848 0.049863365 -0.0077750133 0.022435892 -0.121645376
0.19981341 -0.74985355 -0.06779124 0.030633261 -0.085694365 0.13357611 -0.278184 -0.38507515
-0.2898732 -0.028910363 -0.006103569 -0.14095287 -0.0658504 0.045571268 0.34928215 0.27902755
0.047773786 0.24046272 -0.18743363 0.028567739 -0.01814902 0.7013881 -0.0784233 0.028648362
00000000: 8020 84bb 5895 473b 56ea a23f cdfa 98ba
00000010: 1872 e53a 0131 32bc d04c 7139 2b35 15be
00000020: 57b8 d03e 6540 87be 82be a73c 7d95 433e
00000030: de08 a53e 425c bebd daf7 aabe 53fc 6cbe
00000040: 1076 c8bd 6969 1fbc d2e3 e63c 641d 413e
00000050: 2843 acbd ba55 04bd 53d4 46bd 31f2 a33f
00000060: cdd5 6d3d b2a4 bcbc 259d 243d eca7 1fbd
00000070: a9be 9dbe 47f1 5f3e 4478 41be d915 863c
00000080: 6535 00be 1bd5 9abd 87e1 e4bd 4080 c43d
00000090: 55d0 bb3e 0af1 9f3e 18d3 a33e 8d75 c5bc
000000a0: 307a 153e 8ece 80bd af8c 05be b2b0 c53e
000000b0: f5f9 453f d250 6ebd 3757 3abe 6210 82bd
000000c0: 375b 143d 1dca 2bbe 6a0e dfbe 814e 13be
000000d0: ea84 eabb 70fc 34be c57d cabd 5434 c0bd
000000e0: 4f9d 183d 3d82 57bf 48cb f13d dfc0 033a
000000f0: 219d 813c 67b5 82bb e2bc 0e3d 22b7 733e
00000100: 5898 5a3e 9549 833e 0182 a53d 141e 203d
00000110: fc4c 6abe f8a6 dc3d 63b7 5e3e 5ffb c93e
00000120: ff62 083e caa3 3e3e b587 1f3e 00f2 24bd
00000130: de60 30bd 0010 703e 784e c83e 0cca 603e
00000140: 9c89 243d 918b c7bd f0b6 073c b218 383d
00000150: b7b8 14be 5d2d 5bbd f0d7 73bf 0658 38bd
00000160: 29ce 3bbc 69d6 013d 9df7 1abe aaae ed3d
00000170: ff3d 4fbf 2228 043f 2621 0a3d 82ec 723c
00000180: 2b3c 32bc 2859 523a 0324 963c 55b4 5c3f
00000190: d7d1 1fbc 5eaf fd3c 53bf 3b3d 9830 bebb
000001a0: a083 8a3b e6f4 1a3d 9612 21bf 613b 25bf
000001b0: 9a30 db3d 5d74 bc3d 7542 803d 842d 3f3c
000001c0: 35a8 fe3c dd61 52bf 8664 2d3c 68a4 e13b
000001d0: 5c5f 953c 8964 96bb 90fa 743c 8d34 8e3e
000001e0: 7987 8dbe 8d79 e6be 642d 8a3e fdf4 ec3d
000001f0: 095b 40bd bf70 c13c 1d61 8bbe 26ac 953e
00000200: e31f 85bd bbdd e7bd 0da4 33bc 6c83 3ebe
00000210: 2da8 8abd 5fdb 183c 9182 41bd e75d 913f
00000220: 39f9 bb3c 74d5 933b b8e0 5cbc 3023 903c
00000230: d601 193c 2e52 2a3f 7c2a 8e3d 33b6 f13c
00000240: 6387 91bc e0d6 4dbd 8305 3cbd 3c11 32be
00000250: b075 333e 7993 25bf b5b2 b3bd 03a8 aa3d
00000260: eae3 35bd 1517 a83d 3b44 d93d cb84 c63e
00000270: 75e7 94bf 8a97 e93c 255a ccbc 9b2c d0bc
00000280: 0cf3 15bd e8b8 a23c 6050 4dbf 6592 133e
00000290: eb34 04bd 9e9a b4bb b868 4d3b 8f55 49bc
000002a0: 64eb a53c e208 92be bcf5 1abf 6326 08be
000002b0: b1de d6bd 78c5 80bd 7068 853d 2fdc e03d
000002c0: a30d b63e 0ba2 a2bf 2eb9 d03d 127b b63d
000002d0: ef09 313d aef7 9f3d 7dad 8ebe 6e94 3dbe
000002e0: 30e5 6a3e 6740 503e 01f5 7dbd 7fd6 24bd
000002f0: b562 f13d a401 553e f66f 813d 1000 a33e
00000300: b125 b9bd 8d6e 35be 0dcf 0a3d 938f 8a3c
00000310: ecdc d43d d7bb 39be e91e b3be ff36 5a3e
00000320: a2a0 d5bd c851 023d 96ad 533d e0fb a53d
00000330: f1fe 9e3e 7272 8b3e b727 6d3e 4351 91bc
00000340: 952e 4a3e f6ea 55bd 0c11 9f3d 1306 87be
00000350: 4867 5e3e 9bbe 953e 760f e73d 9666 253e
00000360: bfc9 afbd 1e09 95bc de5e 583f 99e2 343d
00000370: 4757 30bd 72cd a93c 1ae8 793a 2af6 39bc
00000380: a931 a0bc 4a19 563f 8939 c3bc cee6 a93b
00000390: 873d 4c3d 8ac5 febb 7acb b73c 3621 f9bd
000003a0: e39b 4c3e 67f6 3fbf 22d6 8abd 9bf2 fa3c
000003b0: 8780 afbd 2dc8 083e 226e 8ebe 9228 c5be
000003c0: 436a 94be 6dd5 ecbc 7300 c8bb f355 10be
000003d0: 93dc 86bd f0a8 3a3d 1cd5 b23e b3dc 8e3e
000003e0: 72ae 433d dc3b 763e 9aee 3fbe e406 ea3c
000003f0: 41ad 94bc 2c8e 333f 659c a0bd f8af ea3c
